data.pth (torch, 14314 bytes, 6 tensors)

l1.weight f4 [8, 211]
000000 7f a8 8d bc 35 1e 1c 3e 17 00 63 be 0e 1c 52 3e
       -0.01729226 0.15245898 -0.22168003 0.20518515
000010 a3 be 37 3d c1 fc 6d 3e be ac c1 3d 82 e4 b2 3e
       0.04485954 0.23240949 0.09456776 0.34939963
000020 75 f9 e7 3e 1d 89 e1 be 5e a5 3b be 38 8b 33 3f
       0.45307508 -0.44049922 -0.18324801 0.70134306
000030 60 39 da bc 98 ca 4c 3e ed d4 bf 3e e7 f0 3b bf
       -0.026638687 0.19999158 0.37467137 -0.7341446
000040 a1 fd a8 3f f5 99 30 3f 83 3e 8b be 53 16 29 3d
       1.3202401 0.6898492 -0.2719613 0.041281056
000050 f4 5e 78 3f b6 3b 91 3f 92 65 78 be 76 61 de 3e
       0.97019887 1.1346347 -0.24257496 0.43433732
000060 e7 94 71 3f b5 20 fd 3e 87 b1 56 3f b7 d3 77 3f
       0.9436783 0.49439016 0.83864635 0.96807426
000070 f3 9e f6 be d9 87 f0 be 91 f1 5c bf 1d 20 29 bf
       -0.48168144 -0.46978644 -0.863061 -0.66064626
000080 a9 a5 b6 be ca f4 a5 3f 5f de 2d 3f 39 2d 8c 3e
       -0.35673264 1.2965329 0.67917436 0.27378252
000090 f7 22 41 3f 61 71 34 3f 88 a1 a0 bd 10 23 b0 be
       0.7544398 0.704855 -0.0784331 -0.3440175
0000a0 6a 1a 15 bf 77 d9 12 3f 7c 0f 97 3f 73 2c 04 3f
       -0.5824343 0.57363075 1.18016 0.51630324
0000b0 30 25 cf 3d 83 80 12 3f 96 ea 64 bd 1c da 4f bf
       0.10114515 0.57227343 -0.05588778 -0.81192183
0000c0 3f 8e 32 3e 64 37 ed 3e 42 b4 bb be 9f 6e b5 3e
       0.17437075 0.46331322 -0.36660963 0.3543596
0000d0 43 ca 83 3e d9 59 40 bf 25 cf 08 bf 89 b5 e6 be
       0.2574025 -0.75137097 -0.5344108 -0.45060375
0000e0 08 7a e9 3e f9 9f e4 3e 63 6c da 3d 65 95 fd be
       0.45600915 0.446533 0.106652044 -0.4952804
0000f0 4a ef 84 bf 6d 3b 1c bf a3 36 86 bf 72 fe ae bd
       -1.0385525 -0.61028177 -1.0485424 -0.08544625
000100 5a 0a 1b 3f 2f b0 48 bf db 5d 59 bf 3c 63 72 3f
       0.6056267 -0.78393835 -0.8490884 0.9468267
000110 23 af 75 3f e5 71 12 3f f5 0b 9d be 02 a7 63 3f
       0.9597036 0.5720504 -0.30673185 0.8892671
000120 9d bc b1 3e f6 78 5e 3f 68 7e 6c 3f 36 5e e1 bd
       0.34714213 0.8690332 0.9238038 -0.110042974
000130 15 64 09 3d dc 76 62 3f 27 99 4f bf b2 d2 b8 be
       0.03354271 0.88462615 -0.81093067 -0.36098248
000140 de 9b 6c 3f 93 b2 41 bf 30 7b 65 3f d6 6b 74 3f
       0.92425334 -0.7566311 0.89641094 0.95477045
000150 44 cb 32 be 1f bc 2b 3f 9a 11 35 3e 31 36 54 bf
       -0.17460352 0.67083925 0.17682496 -0.8289519
000160 6b 4d 86 3f 26 70 a4 3e 43 0b 0d 3f 32 eb 37 3f
       1.0492376 0.32116812 0.5509531 0.71843255
000170 b1 a6 67 3d 04 a3 82 bf 99 00 ae be 74 a3 44 3f
       0.056555454 -1.0205998 -0.3398483 0.7681191
000180 f5 eb 59 3f 49 3d 23 3e b9 d2 fc be 29 df 15 bf
       0.85125667 0.15941347 -0.4937952 -0.5854364
000190 24 3b b2 3d c5 6b 96 bf d2 6f 43 3f 96 71 a3 be
       0.087026864 -1.1751639 0.763425 -0.31922597
0001a0 88 1e 72 3e f5 34 0f bf 5e 40 35 3f 19 32 42 3f
       0.23644459 -0.5594018 0.7080134 0.7585769
0001b0 44 ad 76 3e da fe 8c bf ff 07 ae bd 40 31 60 be
       0.24089533 -1.1015275 -0.08497619 -0.21893787
0001c0 50 15 53 3f 58 85 29 bf 23 7e 14 3f e2 fe 84 3f
       0.82454395 -0.6621909 0.5800497 1.0390284
0001d0 07 32 6e 3f 72 cc 99 3f 39 6d fa bd f1 16 d2 be
       0.93045086 1.2015517 -0.12227864 -0.41033128
0001e0 a0 a2 db be 45 9b 6d 3f e1 17 5d 3f c8 47 9b bf
       -0.4289751 0.9281505 0.8636456 -1.2131281
0001f0 a9 7e 32 3c f5 4a 8f 3f 6d 6f 93 3e 04 0e 34 bf
       0.010894456 1.119475 0.2879595 -0.70333886
000200 99 0a b6 3f 02 cf 87 bf b1 3d 71 be 8c 48 dc 3e
       1.4221984 -1.0610049 -0.2355869 0.430241
000210 52 ef 4b 3f 97 db c3 3f 4f 34 52 bf 1b 91 b8 bf
       0.7966205 1.5301389 -0.82111067 -1.4419283
000220 83 b6 a0 3f 8a ea 3f bf a8 1a 01 bf 49 19 28 bf
       1.2555698 -0.74967253 -0.504313 -0.6566358
000230 4c 4f 86 bf f5 e0 8c 3f f8 3d 5f bf 50 3e cd bb
       -1.049295 1.1006151 -0.8720393 -0.0062635317
000240 c6 a2 b0 be 9f e1 78 bf 51 a7 48 bd 5d 5c ed 3e
       -0.34499186 -0.9721927 -0.04898769 0.4635953
000250 be 5c 94 bf 08 5c 6c 3f 84 34 a3 bf 3e d0 28 bf
       -1.1590803 0.9232793 -1.2750401 -0.6594275
000260 9b cb 7c 3d 3a 0f 11 3f 88 ba 31 3f 12 90 2a 3f
       0.06171761 0.5666386 0.6942525 0.66626084
000270 66 a2 8b be 08 9c 3b 3d fa 38 17 3e be 82 df 3e
       -0.27272338 0.0458031 0.14767829 0.43654436
000280 be b2 ec 3d ce b7 ae 3f 01 f2 d2 3e 9c dc 15 3e
       0.1155753 1.3649843 0.4120026 0.14634937
000290 6d 21 4a bf c0 85 3b 3f ff 43 b5 bd a3 ca 0e be
       -0.78957254 0.7325096 -0.0885086 -0.13944487
0002a0 8a 03 a8 bb ec 17 91 3f cb fc 66 bd a6 54 0b 3f
       -0.005127375 1.1335425 -0.056393426 0.5442604
0002b0 0a af 7c bf fc 4a 7d 3e 99 c3 72 bd 0a d7 57 bd
       -0.9870459 0.24735636 -0.059268568 -0.05269531
0002c0 66 2d c2 be a5 ad 4a bd f0 2f f5 3e 72 91 67 3f
       -0.3792526 -0.049482007 0.47888136 0.90456307
0002d0 a1 53 f6 3c 8f 60 92 bf 9c f4 6c be 7c 1c a2 3e
       0.030069174 -1.1435717 -0.23140186 0.31662357
0002e0 e2 cd 39 3f ec 2d 66 3f 72 c2 34 bf 07 39 ae 3f
       0.7257978 0.8991382 -0.706092 1.3611153
0002f0 f9 49 22 bf 1a 1b 3e 3e 9c ff 12 3f 34 bb c8 3f
       -0.63394123 0.18565026 0.5742128 1.568213
000300 55 8c 81 3e 4c 4c 28 bf 90 20 57 3f ac 22 91 be
       0.25302377 -0.6574142 0.8403406 -0.28346765
000310 aa 37 6f 3f de 72 2d bf e7 e1 f5 be cb db 4c 3e
       0.9344431 -0.677534 -0.48023912 0.2000572
000320 4a 03 3a 3f 2e e4 d0 3d 6d 94 f7 be 91 2b db 3e
       0.7266127 0.10199772 -0.48355427 0.42806676
000330 98 b1 1b be cc 7f 01 3f fe 83 ab be 63 14 53 3d
       -0.15204465 0.5058563 -0.3349914 0.051533114
000340 59 f4 f1 be 6f 04 3e bf 93 1c 3a bf 5f a1 a5 be
       -0.47256735 -0.74225515 -0.7269985 -0.3234968
000350 5c 15 7c be 78 fb 84 3f a1 4c e3 3e b2 c8 36 be
       -0.24617523 1.0389242 0.443944 -0.17849997
000360 9f ac 02 3e 79 66 63 3f fe 61 af bf d2 95 d2 bf
       0.12761162 0.88828236 -1.370178 -1.6451972
000370 22 12 ca 3e a4 85 03 3f f7 78 d8 3d 0e 6d d1 3d
       0.3946696 0.51375794 0.10569947 0.10225879
000380 b8 65 88 bf 6b 47 bd 3e f7 ef 5c 3f 96 6d 58 3f
       -1.0656042 0.3696855 0.8630366 0.84542215
000390 14 f8 fb 3e 66 02 81 3f 19 07 b9 3e 53 d5 31 3f
       0.49212706 1.0078857 0.36138228 0.6946613
0003a0 a8 d6 84 bf 46 3d 8a 3f 09 9c 06 3f da d2 34 3f
       -1.0378008 1.0799949 0.5258184 0.70634234
0003b0 5c ec b9 3d e1 cf 46 3f 00 da db be d6 b2 0c 3e
       0.09078285 0.7766095 -0.42939758 0.13740095
0003c0 dd cd 2d bf 92 ef b5 3e 27 75 15 3f 82 76 b5 3e
       -0.6789225 0.3553434 0.58381885 0.35441977
0003d0 e3 de a1 bf 0b 6e 35 bf 40 93 a9 3e 42 83 72 bf
       -1.2646145 -0.7087104 0.33120155 -0.94731534
0003e0 0e 89 18 3f 53 96 78 bd c9 70 08 bc 80 7e e0 3e
       0.5958413 -0.060690235 -0.008327671 0.43846512
0003f0 f9 cf b9 3e d2 a7 a4 3f 2e 74 bf 3e 3b da 9e 3e
       0.36291483 1.2863715 0.37393326 0.31025872

l1.bias f4 [8]
000000 f4 3b 82 3f 0f 9d 8d 3f 86 09 0e 3f 7c 33 bb 3f
       1.0174546 1.1063555 0.5548328 1.4625087
000010 ad 26 49 3f 45 7e 92 3f da b4 6e 3f ef 4e 52 3f
       0.7857464 1.1444784 0.9324471 0.82151693

l2.weight f4 [8, 8]
000000 c1 2f b7 bf 97 f1 02 3f 5d 77 2f 3f 27 99 fe 3f
       -1.4311448 0.51149887 0.6854151 1.9890488
000010 31 08 24 3f db 82 0d 40 bf f7 d5 bf d2 ec 1a 3d
       0.64075 2.2111118 -1.6716231 0.037823506
000020 3f 8a db 3f be b8 d0 3f 57 29 b2 3f c4 03 2e be
       1.7151564 1.6306379 1.3918866 -0.16993624
000030 b0 3c b6 bf cc 8c 29 be 0e b8 df 3f 3d 24 b9 3f
       -1.423727 -0.16557616 1.7478044 1.4464184
000040 d7 c5 d1 be be 38 5a bf b6 05 ce 3f c5 2d 1a 3f
       -0.40971252 -0.8524283 1.6095493 0.6022609
000050 81 3a 27 3f e6 c2 30 be 88 fe f2 be d4 85 04 40
       0.65323645 -0.17261848 -0.47459817 2.0706682
000060 48 ee 17 bd d5 5c 6b be de ef 1e 3e bd dd ab 3e
       -0.037092477 -0.22984631 0.1552119 0.3356761
000070 4b 46 52 be f3 ae ad be dd 09 40 be f6 d4 a7 be
       -0.20534627 -0.33922538 -0.18753763 -0.32779664
000080 01 05 80 3f 9c 24 68 bf 06 b7 8c 3f 19 02 40 3f
       1.0001527 -0.9068086 1.0993354 0.750032
000090 36 86 22 40 79 49 a2 3f 96 b8 fb 3f fb 0f eb bf
       2.5394416 1.2678672 1.9665706 -1.8364252
0000a0 40 28 a9 bf 1d 45 e0 3f 7e 26 cb 3f 69 d8 a3 bf
       -1.3215408 1.7521092 1.5871122 -1.2800418
0000b0 32 9a 8e 3f 0d d0 40 3f 4e ce 92 3f ef 8b 5e 3f
       1.1140807 0.7531746 1.1469209 0.8693227
0000c0 f9 f1 ac bf 5d 8a 54 40 0e d9 8e be 58 51 ed be
       -1.3511344 3.320945 -0.27899975 -0.46351123
0000d0 75 02 01 c0 a7 5c 13 40 b9 cd 6e bf 22 e8 6e 3f
       -2.015775 2.30253 -0.9328266 0.93322957
0000e0 80 f5 16 40 83 a0 31 40 54 1a 08 c0 79 fe 17 40
       2.3587341 2.7754219 -2.126607 2.3749068
0000f0 18 c8 64 3e da cf 3c bf 4e 19 f1 3e 11 d2 a5 3f
       0.22341955 -0.73754656 0.47089618 1.2954732

l2.bias f4 [8]
000000 e3 99 51 3f 16 93 10 3f aa 35 7d be f3 2e b3 be
       0.8187544 0.56474435 -0.24727502 -0.34996757
000010 e5 a2 58 3f 0f 3d a5 3e 05 5e 44 3e 2d a2 72 3f
       0.8462356 0.32273147 0.1917649 0.9477871

l3.weight f4 [39, 8]
000000 68 02 cd be fc da 51 3f a2 1a e0 3d 20 17 06 3d
       -0.40040898 0.8197477 0.1094258 0.032736897
000010 92 2e 80 bf 15 92 4e bf 7b 1e 18 3d 53 b1 7f bf
       -1.0014212 -0.80691653 0.037138443 -0.9987995
000020 82 64 a4 bf e4 64 02 3f ed 27 45 be d8 dd bb bd
       -1.2843173 0.50935197 -0.19253512 -0.09173173
000030 6d da b2 be fd 3c 36 bf 6d f8 86 c0 2c 88 2d 3f
       -0.3493227 -0.7118681 -4.2178254 0.67785907
000040 c4 21 c3 3e 94 52 9e be 2d ca 20 3f 10 f4 4e bd
       0.381117 -0.30922377 0.62808496 -0.050525725
000050 ed d9 05 3d 2f 0b 95 bf dd 88 0c c0 a5 d8 fe be
       0.032678533 -1.1644038 -2.1958535 -0.49774662
000060 48 fc b1 be 1d 3f 15 bf 1d d0 0c c0 df 4a a2 3e
       -0.34762788 -0.5829943 -2.2002022 0.31697747
000070 e3 5f 6a bf a3 a8 42 bf c0 e9 23 3f 37 15 94 3d
       -0.9155256 -0.7603857 0.6402855 0.07230609
000080 9e c9 75 c0 e6 56 05 3e 6b ea 6e c0 c1 89 37 be
       -3.8404307 0.1302143 -3.7330577 -0.17923643
000090 54 cb 0c 3f a1 07 0d 3e 2f cc 21 bc 8e 34 10 3d
       0.54997754 0.13772441 -0.009875341 0.03520637
0000a0 46 9d 42 3f a9 0b 76 be 37 a0 5c 3f 12 e5 17 3e
       0.7602123 -0.24027885 0.8618197 0.14833477
0000b0 0e ad 9d bf 05 49 92 bf ce 3b e5 be 86 c4 a5 bf
       -1.2318437 -1.1428534 -0.4477219 -1.2950599
0000c0 ff 14 37 bf 7c 74 14 3d 0b 27 42 c0 4c 9f 9a be
       -0.7151641 0.0362439 -3.033633 -0.3019966
0000d0 1b 88 67 3f 4f 0b 82 3e e3 f2 45 be 5b 55 f8 bf
       0.90442055 0.25399253 -0.19330935 -1.9401048
0000e0 ce b6 5b 3e 0f eb 05 be 2e 0f c4 3e 80 1a 3c 3d
       0.21456453 -0.13077949 0.3829283 0.04592371
0000f0 35 e7 16 bf 25 46 02 be 57 60 8c 3e f1 f4 60 c0
       -0.58946544 -0.1272207 0.2741725 -3.51495
000100 23 ec a5 bf bb 3c b1 3d eb e2 94 bf 2b 43 43 be
       -1.2962688 0.086541615 -1.163175 -0.19068591
000110 8a 5b 3a 3f df 37 51 3d af cb 6e c0 00 c6 0b bf
       0.7279593 0.051078673 -3.7311819 -0.54599
000120 2f d3 52 c0 b4 ce a7 be 3c 0a e7 bf 40 94 31 3d
       -3.2941396 -0.3277489 -1.8049998 0.043354273
000130 89 9f 94 3f ad 3c 49 c0 25 c4 12 c0 d8 12 21 3f
       1.1611186 -3.1443284 -2.2932217 0.6291938
000140 25 1f 38 c0 ef 0f 09 3f c2 9d 13 bf 0c 75 ed 3d
       -2.876901 0.5353994 -0.57662594 0.115945905
000150 5d f1 db bf 38 35 3d bf f0 f4 36 3e 53 ab fc 3e
       -1.7183033 -0.7390933 0.17866874 0.4934946
000160 e5 2e 5f c0 27 4f 99 bb db 94 8c c0 ca 59 17 3e
       -3.4872372 -0.004678625 -4.393171 0.14780346
000170 22 92 a4 bf 0a 89 12 3e b4 f0 5c 3f ba be e5 3e
       -1.2857096 0.14310089 0.86304784 0.44872075
000180 91 4a 12 3f 15 bc dc be 07 ae bb 3e 74 94 98 3d
       0.5714503 -0.43112245 0.3665621 0.0745019
000190 d5 87 98 3e 24 f8 10 be 85 53 98 bf 3c 66 36 c0
       0.29791132 -0.14157158 -1.1900488 -2.84999
0001a0 de ce 79 bf 68 2f 01 3f 0c 53 63 be 30 6a ca bc
       -0.9758128 0.5046296 -0.22199649 -0.024708837
0001b0 91 2c 42 be 4e 08 83 3e 3d ea 86 3d 16 fd 0a c0
       -0.18962313 0.25592273 0.06587646 -2.1716971
0001c0 86 26 98 3e b0 fd 82 be b8 af 7d c0 84 15 bf bd
       0.2971689 -0.25584173 -3.96385 -0.09330276
0001d0 5a bb 25 3f 07 d4 5e c0 b7 67 66 c0 24 87 10 3f
       0.64739 -3.4816911 -3.6000803 0.5645621
0001e0 71 fe f5 bf 93 d0 ee 3e 3f a5 79 c0 6a 37 2a 3e
       -1.9218274 0.46643505 -3.9007108 0.16622701
0001f0 fe 0e 82 be d8 82 24 c0 85 fc d5 bd 24 d1 76 3f
       -0.25402063 -2.570486 -0.10448555 0.96412873
000200 b5 b2 96 be d2 2d 0f bf 57 9c d0 bf f5 a2 5a be
       -0.29433218 -0.5592929 -1.6297711 -0.21351226
000210 f7 16 65 c0 ed 9b e3 bc 04 8c 47 3f a5 9d a5 be
       -3.5795267 -0.027784312 0.7794802 -0.32346836
000220 d5 c7 a7 3e da ca bf be c3 fb 81 bf 4a 93 3f be
       0.32769647 -0.3745945 -1.0154957 -0.1870853
000230 80 04 8c bd 03 fe 48 c0 13 a9 ad be d9 f7 ce 3d
       -0.06836796 -3.1405036 -0.33918056 0.10105867
000240 2c 5c 0d bf 52 0e 46 3f ac 6d 1b be cb c5 93 3e
       -0.5521877 0.773656 -0.15178555 0.28861842
000250 d2 ef db 3e f2 bf 3b bf 10 82 85 bf 89 ee c0 bf
       0.42956406 -0.7333976 -1.0430317 -1.5072795
000260 3d 2e d7 bf 55 86 87 3e b5 4c 16 c0 b4 82 92 bd
       -1.6810986 0.26469675 -2.3484318 -0.07153836
000270 12 bc 9a be 24 33 b4 3e bb 90 43 3f 3b a7 92 bf
       -0.3022161 0.35195267 0.76392716 -1.1457285
000280 51 db 25 c0 76 3a d6 3e 37 d5 b5 3c 12 3c 84 be
       -2.591511 0.41841477 0.022196395 -0.2582708
000290 3d e6 e3 be b1 ec cc 3e 96 4c 3c be 29 f1 4b bf
       -0.44511595 0.4002433 -0.1838859 -0.79664856
0002a0 92 ba 1c bf ac 10 80 be 36 0c 80 bf b1 17 90 3e
       -0.61222184 -0.2501272 -1.0003726 0.28143075
0002b0 c4 d8 c4 3b 9a 27 b8 be 3f fe 37 bf a9 a6 42 3e
       0.006007286 -0.35967714 -0.71872324 0.19008888
0002c0 e3 a5 1f 3f f5 e9 57 bf c0 69 09 be 60 60 99 bc
       0.623625 -0.84341365 -0.13419247 -0.018722713
0002d0 1a 2e ea bf 75 59 29 c0 30 16 de 3e 0b f9 b1 bb
       -1.8295319 -2.646085 0.43376303 -0.0054312996
0002e0 28 e3 0b c0 07 5e 0e 3f 7a a2 80 3f 9e cc 64 3e
       -2.1857395 0.55612224 1.0049584 0.2234368
0002f0 cb b4 01 c0 c5 a6 03 3f 62 57 d1 bd 6e d9 f2 bf
       -2.0266597 0.51426345 -0.10221745 -1.8972604
000300 ad eb 1d c0 e6 2f 5b 3d c8 b0 cd 3c 55 79 a6 be
       -2.4675095 0.053512476 0.02510871 -0.32514444
000310 a5 c3 39 c0 7c 82 f1 3e 03 d8 2b 3f 07 d3 de be
       -2.9025662 0.47169864 0.6712648 -0.43520376
000320 ce 1e dd 3e b1 09 e5 be ca 37 7d 3e 87 12 b3 3e
       0.43187565 -0.44733956 0.24728313 0.34975073
000330 9b 14 52 c0 d5 e9 07 bf b3 dd 14 3e 3f 9f 0a bf
       -3.2825077 -0.53091174 0.14537697 -0.5414924
000340 9e 9e 0f 3e 56 93 8d bf 1f 5a a1 3e 66 0d 30 3e
       0.14025351 -1.1060588 0.3151407 0.17192611
000350 8d 0b 65 bf 51 1e 66 bd 95 89 90 be fb 16 b4 be
       -0.8947075 -0.056181256 -0.28229967 -0.35173783
000360 9c 8d 0e bf e9 a4 a9 bd ec f6 70 bf 0e 92 83 be
       -0.5568483 -0.08283407 -0.9412677 -0.25697368
000370 96 0f 47 c0 b9 85 07 c0 16 89 ad 3e 4c 5e 36 3f
       -3.1103263 -2.1175368 0.3389365 0.71237636
000380 49 03 38 3f 66 9e 09 bf c1 bc ec bf bf a7 ad be
       0.7188001 -0.5375732 -1.8495103 -0.33917043
000390 4b fd 2f be 40 87 92 be ef 75 26 3f 85 51 02 c0
       -0.17186467 -0.28618813 0.650237 -2.0362256
0003a0 53 4c fe be 4e 59 cd 3e f8 36 bb be ad c9 81 be
       -0.49667606 0.40107197 -0.36565375 -0.2534918
0003b0 53 9f e9 bf 1d a8 50 3e 49 f9 50 3f 13 36 0a c0
       -1.8251747 0.2037663 0.8163038 -2.1595504
0003c0 d8 74 41 c0 5c fc 89 3e a2 f5 ad 3d f4 03 e7 3d
       -3.0227566 0.26950347 0.08494116 0.11280051
0003d0 44 37 db 3a c8 41 ed be a4 15 88 bf 8b 85 9a 3e
       0.0016724844 -0.4633925 -1.0631604 0.3018001
0003e0 a3 08 65 3f 46 a5 64 c0 11 0e e6 be c6 5f 68 3e
       0.89466304 -3.5725875 -0.44932607 0.22692785
0003f0 43 30 11 3f 3c 99 11 c0 aa 4f 3f c0 44 dc de 3e
       0.56714267 -2.2749777 -2.9892373 0.43527424

l3.bias f4 [39]
000000 6d 10 76 3d 0e 97 15 3f 92 56 98 3d 44 e7 85 be
       0.06007426 0.58433616 0.07438387 -0.26153004
000010 2a f2 53 be 00 02 ca be 35 6c 98 3c 4a 15 80 be
       -0.20697847 -0.3945465 0.018606285 -0.25016242
000020 cd 7d 24 be d3 ba b4 be 14 4b 21 3c 06 66 b2 3e
       -0.16063614 -0.35298786 0.00984456 0.34843463
000030 2f a3 85 be d4 1a ed 3d a5 e9 15 3e c6 cd e1 3e
       -0.26101062 0.11577383 0.1463991 0.44102305
000040 3a f1 e9 39 e8 0d bc be 19 f9 64 be f1 9b b7 3e
       0.0004462095 -0.3672936 -0.22360648 0.3586116
000050 8b b8 ba be 24 39 fc 3e cf a0 e8 3c 12 74 cf 39
       -0.3646892 0.49262345 0.028396992 0.00039568596
000060 bd fd b0 bd f8 25 d7 be d0 03 80 be b5 94 cc be
       -0.08642147 -0.42021155 -0.2500291 -0.39957204
000070 ee 9f 05 3f 61 f1 59 be 93 6e 07 bf 75 58 70 bc
       0.5219716 -0.21283485 -0.529031 -0.014669527
000080 6c a2 d7 3e 66 c2 96 3e 0c 52 a1 3e 49 4d 0b bf
       0.42116106 0.2944519 0.3150791 -0.544148
000090 47 05 88 be 58 8c a1 3c e7 fc 74 be
       -0.26566526 0.019720241 -0.239246
